Training items: 264
Validation items: 72
Factor train/val: 0.7857142857142857
----------------------------------------------------------------
        Layer (type)               Output Shape         Param #
================================================================
            Conv2d-1         [-1, 32, 512, 512]             320
         LeakyReLU-2         [-1, 32, 512, 512]               0
    InstanceNorm2d-3         [-1, 32, 512, 512]               0
            Conv2d-4         [-1, 32, 512, 512]           9,248
         LeakyReLU-5         [-1, 32, 512, 512]               0
    InstanceNorm2d-6         [-1, 32, 512, 512]               0
        DoubleConv-7         [-1, 32, 512, 512]               0
         MaxPool2d-8         [-1, 32, 256, 256]               0
            Conv2d-9         [-1, 64, 256, 256]          18,496
        LeakyReLU-10         [-1, 64, 256, 256]               0
   InstanceNorm2d-11         [-1, 64, 256, 256]               0
           Conv2d-12         [-1, 64, 256, 256]          36,928
        LeakyReLU-13         [-1, 64, 256, 256]               0
   InstanceNorm2d-14         [-1, 64, 256, 256]               0
       DoubleConv-15         [-1, 64, 256, 256]               0
             Down-16         [-1, 64, 256, 256]               0
        MaxPool2d-17         [-1, 64, 128, 128]               0
           Conv2d-18        [-1, 128, 128, 128]          73,856
        LeakyReLU-19        [-1, 128, 128, 128]               0
   InstanceNorm2d-20        [-1, 128, 128, 128]               0
           Conv2d-21        [-1, 128, 128, 128]         147,584
        LeakyReLU-22        [-1, 128, 128, 128]               0
   InstanceNorm2d-23        [-1, 128, 128, 128]               0
       DoubleConv-24        [-1, 128, 128, 128]               0
             Down-25        [-1, 128, 128, 128]               0
        MaxPool2d-26          [-1, 128, 64, 64]               0
           Conv2d-27          [-1, 256, 64, 64]         295,168
        LeakyReLU-28          [-1, 256, 64, 64]               0
   InstanceNorm2d-29          [-1, 256, 64, 64]               0
           Conv2d-30          [-1, 256, 64, 64]         590,080
        LeakyReLU-31          [-1, 256, 64, 64]               0
   InstanceNorm2d-32          [-1, 256, 64, 64]               0
       DoubleConv-33          [-1, 256, 64, 64]               0
             Down-34          [-1, 256, 64, 64]               0
  ConvTranspose2d-35        [-1, 128, 128, 128]         131,200
           Conv2d-36        [-1, 128, 128, 128]         295,040
        LeakyReLU-37        [-1, 128, 128, 128]               0
   InstanceNorm2d-38        [-1, 128, 128, 128]               0
           Conv2d-39        [-1, 128, 128, 128]         147,584
        LeakyReLU-40        [-1, 128, 128, 128]               0
   InstanceNorm2d-41        [-1, 128, 128, 128]               0
       DoubleConv-42        [-1, 128, 128, 128]               0
               Up-43        [-1, 128, 128, 128]               0
  ConvTranspose2d-44         [-1, 64, 256, 256]          32,832
           Conv2d-45         [-1, 64, 256, 256]          73,792
        LeakyReLU-46         [-1, 64, 256, 256]               0
   InstanceNorm2d-47         [-1, 64, 256, 256]               0
           Conv2d-48         [-1, 64, 256, 256]          36,928
        LeakyReLU-49         [-1, 64, 256, 256]               0
   InstanceNorm2d-50         [-1, 64, 256, 256]               0
       DoubleConv-51         [-1, 64, 256, 256]               0
               Up-52         [-1, 64, 256, 256]               0
  ConvTranspose2d-53         [-1, 32, 512, 512]           8,224
           Conv2d-54         [-1, 32, 512, 512]          18,464
        LeakyReLU-55         [-1, 32, 512, 512]               0
   InstanceNorm2d-56         [-1, 32, 512, 512]               0
           Conv2d-57         [-1, 32, 512, 512]           9,248
        LeakyReLU-58         [-1, 32, 512, 512]               0
   InstanceNorm2d-59         [-1, 32, 512, 512]               0
       DoubleConv-60         [-1, 32, 512, 512]               0
               Up-61         [-1, 32, 512, 512]               0
           Conv2d-62         [-1, 10, 512, 512]             330
================================================================
Total params: 1,925,322
Trainable params: 1,925,322
Non-trainable params: 0
----------------------------------------------------------------
Input size (MB): 1.00
Forward/backward pass size (MB): 1952.00
Params size (MB): 7.34
Estimated Total Size (MB): 1960.34
----------------------------------------------------------------
Total_params:1925322
…
